# Ultralytics YOLO 🚀, AGPL-3.0 license
# YOLOv8 object detection model with P3-P5 outputs. For Usage examples see https://docs.ultralytics.com/tasks/detect

# Parameters
nc: 9 # number of classes
scales: # model compound scaling constants, i.e. 'model=yolov8n.yaml' will call yolov8.yaml with scale 'n'
  # [depth, width, max_channels]
  m: [0.67, 0.75, 768] # YOLOv8m summary: 295 layers, 25902640 parameters, 25902624 gradients,  79.3 GFLOPs
#  s: [0.33, 0.50, 1024]
# YOLOv8.0n backbone
backbone:
  # [from, repeats, module, args]
  - [-1, 1, DACnet_s_mul, ['/home/qjc/Project/yolov10-main/DAC_s_backbone.pth']]  # 4
#  - [-1, 1, DACnet_s, ['/home/qjc/Project/yolov10-main/DAC_s_backbone.pth']]  # 4
  - [-1, 1, SPPF, [1024, 5]] # 5
  - [-1, 1, PSA, [1024]] # 6

# YOLOv8.0n head
head:
  - [-1, 1, nn.Upsample, [None, 2, "nearest"]]
  - [[-1, 3], 1, Concat, [1]] # cat backbone P4
  - [-1, 3, C2f, [512]] # 9

  - [-1, 1, nn.Upsample, [None, 2, "nearest"]]
  - [[-1, 2], 1, Concat, [1]] # cat backbone P3
  - [-1, 3, C2f, [256]] # 12 (P3/8-small)

  - [-1, 1, Conv, [256, 3, 2]]
  - [[-1, 9], 1, Concat, [1]] # cat head P4
  - [-1, 3, C2fCIB, [512, True]] # 15 (P4/16-medium)

  - [-1, 1, SCDown, [512, 3, 2]]
  - [[-1, 6], 1, Concat, [1]] # cat head P5
  - [-1, 3, C2fCIB, [1024, True]] # 18 (P5/32-large)

  - [[12, 15, 18], 1, Detect, [nc]] # Detect(P3, P4, P5)
